…
/ext3/miniconda3/lib/python3.12/site-packages/torch/utils/data/dataloader.py:558: UserWarning: This DataLoader will create 2 worker processes in total. Our suggested max number of worker in current system is 1, which is smaller than what this DataLoader is going to create. Please be aware that excessive worker creation might get DataLoader running slow or even freeze, lower the worker number to avoid potential slowness/freeze if necessary.
  warnings.warn(_create_warning_msg(
Files already downloaded and verified
Files already downloaded and verified

----------------------------------------------------------------
        Layer (type)               Output Shape         Param #
================================================================
            Conv2d-1           [-1, 32, 32, 32]             864
       BatchNorm2d-2           [-1, 32, 32, 32]              64
              ReLU-3           [-1, 32, 32, 32]               0
            Conv2d-4           [-1, 32, 32, 32]           9,216
       BatchNorm2d-5           [-1, 32, 32, 32]              64
              ReLU-6           [-1, 32, 32, 32]               0
            Conv2d-7           [-1, 32, 32, 32]           9,216
       BatchNorm2d-8           [-1, 32, 32, 32]              64
              ReLU-9           [-1, 32, 32, 32]               0
     Resnet_block-10           [-1, 32, 32, 32]               0
           Conv2d-11           [-1, 32, 32, 32]           9,216
      BatchNorm2d-12           [-1, 32, 32, 32]              64
             ReLU-13           [-1, 32, 32, 32]               0
           Conv2d-14           [-1, 32, 32, 32]           9,216
      BatchNorm2d-15           [-1, 32, 32, 32]              64
             ReLU-16           [-1, 32, 32, 32]               0
     Resnet_block-17           [-1, 32, 32, 32]               0
           Conv2d-18           [-1, 32, 32, 32]           9,216
      BatchNorm2d-19           [-1, 32, 32, 32]              64
             ReLU-20           [-1, 32, 32, 32]               0
           Conv2d-21           [-1, 32, 32, 32]           9,216
      BatchNorm2d-22           [-1, 32, 32, 32]              64
             ReLU-23           [-1, 32, 32, 32]               0
     Resnet_block-24           [-1, 32, 32, 32]               0
           Conv2d-25           [-1, 32, 32, 32]           9,216
      BatchNorm2d-26           [-1, 32, 32, 32]              64
             ReLU-27           [-1, 32, 32, 32]               0
           Conv2d-28           [-1, 32, 32, 32]           9,216
      BatchNorm2d-29           [-1, 32, 32, 32]              64
             ReLU-30           [-1, 32, 32, 32]               0
     Resnet_block-31           [-1, 32, 32, 32]               0
           Conv2d-32           [-1, 32, 32, 32]           9,216
      BatchNorm2d-33           [-1, 32, 32, 32]              64
             ReLU-34           [-1, 32, 32, 32]               0
           Conv2d-35           [-1, 32, 32, 32]           9,216
      BatchNorm2d-36           [-1, 32, 32, 32]              64
             ReLU-37           [-1, 32, 32, 32]               0
     Resnet_block-38           [-1, 32, 32, 32]               0
           Conv2d-39           [-1, 32, 32, 32]           9,216
      BatchNorm2d-40           [-1, 32, 32, 32]              64
             ReLU-41           [-1, 32, 32, 32]               0
           Conv2d-42           [-1, 32, 32, 32]           9,216
      BatchNorm2d-43           [-1, 32, 32, 32]              64
             ReLU-44           [-1, 32, 32, 32]               0
     Resnet_block-45           [-1, 32, 32, 32]               0
           Conv2d-46           [-1, 32, 32, 32]           9,216
      BatchNorm2d-47           [-1, 32, 32, 32]              64
             ReLU-48           [-1, 32, 32, 32]               0
           Conv2d-49           [-1, 32, 32, 32]           9,216
      BatchNorm2d-50           [-1, 32, 32, 32]              64
             ReLU-51           [-1, 32, 32, 32]               0
     Resnet_block-52           [-1, 32, 32, 32]               0
           Conv2d-53           [-1, 32, 32, 32]           9,216
      BatchNorm2d-54           [-1, 32, 32, 32]              64
             ReLU-55           [-1, 32, 32, 32]               0
           Conv2d-56           [-1, 32, 32, 32]           9,216
      BatchNorm2d-57           [-1, 32, 32, 32]              64
             ReLU-58           [-1, 32, 32, 32]               0
     Resnet_block-59           [-1, 32, 32, 32]               0
           Conv2d-60           [-1, 32, 32, 32]           9,216
      BatchNorm2d-61           [-1, 32, 32, 32]              64
             ReLU-62           [-1, 32, 32, 32]               0
           Conv2d-63           [-1, 32, 32, 32]           9,216
      BatchNorm2d-64           [-1, 32, 32, 32]              64
             ReLU-65           [-1, 32, 32, 32]               0
     Resnet_block-66           [-1, 32, 32, 32]               0
           Conv2d-67           [-1, 32, 32, 32]           9,216
      BatchNorm2d-68           [-1, 32, 32, 32]              64
             ReLU-69           [-1, 32, 32, 32]               0
           Conv2d-70           [-1, 32, 32, 32]           9,216
      BatchNorm2d-71           [-1, 32, 32, 32]              64
             ReLU-72           [-1, 32, 32, 32]               0
     Resnet_block-73           [-1, 32, 32, 32]               0
           Conv2d-74           [-1, 32, 32, 32]           9,216
      BatchNorm2d-75           [-1, 32, 32, 32]              64
             ReLU-76           [-1, 32, 32, 32]               0
           Conv2d-77           [-1, 32, 32, 32]           9,216
      BatchNorm2d-78           [-1, 32, 32, 32]              64
             ReLU-79           [-1, 32, 32, 32]               0
     Resnet_block-80           [-1, 32, 32, 32]               0
           Conv2d-81           [-1, 32, 32, 32]           9,216
      BatchNorm2d-82           [-1, 32, 32, 32]              64
             ReLU-83           [-1, 32, 32, 32]               0
           Conv2d-84           [-1, 32, 32, 32]           9,216
      BatchNorm2d-85           [-1, 32, 32, 32]              64
             ReLU-86           [-1, 32, 32, 32]               0
     Resnet_block-87           [-1, 32, 32, 32]               0
           Conv2d-88           [-1, 32, 32, 32]           9,216
      BatchNorm2d-89           [-1, 32, 32, 32]              64
             ReLU-90           [-1, 32, 32, 32]               0
           Conv2d-91           [-1, 32, 32, 32]           9,216
      BatchNorm2d-92           [-1, 32, 32, 32]              64
             ReLU-93           [-1, 32, 32, 32]               0
     Resnet_block-94           [-1, 32, 32, 32]               0
           Conv2d-95           [-1, 64, 16, 16]          18,432
      BatchNorm2d-96           [-1, 64, 16, 16]             128
             ReLU-97           [-1, 64, 16, 16]               0
           Conv2d-98           [-1, 64, 16, 16]          36,864
      BatchNorm2d-99           [-1, 64, 16, 16]             128
          Conv2d-100           [-1, 64, 16, 16]           2,048
     BatchNorm2d-101           [-1, 64, 16, 16]             128
            ReLU-102           [-1, 64, 16, 16]               0
    Resnet_block-103           [-1, 64, 16, 16]               0
          Conv2d-104           [-1, 64, 16, 16]          36,864
     BatchNorm2d-105           [-1, 64, 16, 16]             128
            ReLU-106           [-1, 64, 16, 16]               0
          Conv2d-107           [-1, 64, 16, 16]          36,864
     BatchNorm2d-108           [-1, 64, 16, 16]             128
            ReLU-109           [-1, 64, 16, 16]               0
    Resnet_block-110           [-1, 64, 16, 16]               0
          Conv2d-111           [-1, 64, 16, 16]          36,864
     BatchNorm2d-112           [-1, 64, 16, 16]             128
            ReLU-113           [-1, 64, 16, 16]               0
          Conv2d-114           [-1, 64, 16, 16]          36,864
     BatchNorm2d-115           [-1, 64, 16, 16]             128
            ReLU-116           [-1, 64, 16, 16]               0
    Resnet_block-117           [-1, 64, 16, 16]               0
          Conv2d-118           [-1, 64, 16, 16]          36,864
     BatchNorm2d-119           [-1, 64, 16, 16]             128
            ReLU-120           [-1, 64, 16, 16]               0
          Conv2d-121           [-1, 64, 16, 16]          36,864
     BatchNorm2d-122           [-1, 64, 16, 16]             128
            ReLU-123           [-1, 64, 16, 16]               0
    Resnet_block-124           [-1, 64, 16, 16]               0
          Conv2d-125           [-1, 64, 16, 16]          36,864
     BatchNorm2d-126           [-1, 64, 16, 16]             128
            ReLU-127           [-1, 64, 16, 16]               0
          Conv2d-128           [-1, 64, 16, 16]          36,864
     BatchNorm2d-129           [-1, 64, 16, 16]             128
            ReLU-130           [-1, 64, 16, 16]               0
    Resnet_block-131           [-1, 64, 16, 16]               0
          Conv2d-132           [-1, 64, 16, 16]          36,864
     BatchNorm2d-133           [-1, 64, 16, 16]             128
            ReLU-134           [-1, 64, 16, 16]               0
          Conv2d-135           [-1, 64, 16, 16]          36,864
     BatchNorm2d-136           [-1, 64, 16, 16]             128
            ReLU-137           [-1, 64, 16, 16]               0
    Resnet_block-138           [-1, 64, 16, 16]               0
          Conv2d-139           [-1, 64, 16, 16]          36,864
     BatchNorm2d-140           [-1, 64, 16, 16]             128
            ReLU-141           [-1, 64, 16, 16]               0
          Conv2d-142           [-1, 64, 16, 16]          36,864
     BatchNorm2d-143           [-1, 64, 16, 16]             128
            ReLU-144           [-1, 64, 16, 16]               0
    Resnet_block-145           [-1, 64, 16, 16]               0
          Conv2d-146           [-1, 64, 16, 16]          36,864
     BatchNorm2d-147           [-1, 64, 16, 16]             128
            ReLU-148           [-1, 64, 16, 16]               0
          Conv2d-149           [-1, 64, 16, 16]          36,864
     BatchNorm2d-150           [-1, 64, 16, 16]             128
            ReLU-151           [-1, 64, 16, 16]               0
    Resnet_block-152           [-1, 64, 16, 16]               0
          Conv2d-153           [-1, 64, 16, 16]          36,864
     BatchNorm2d-154           [-1, 64, 16, 16]             128
            ReLU-155           [-1, 64, 16, 16]               0
          Conv2d-156           [-1, 64, 16, 16]          36,864
     BatchNorm2d-157           [-1, 64, 16, 16]             128
            ReLU-158           [-1, 64, 16, 16]               0
    Resnet_block-159           [-1, 64, 16, 16]               0
          Conv2d-160           [-1, 64, 16, 16]          36,864
     BatchNorm2d-161           [-1, 64, 16, 16]             128
            ReLU-162           [-1, 64, 16, 16]               0
          Conv2d-163           [-1, 64, 16, 16]          36,864
     BatchNorm2d-164           [-1, 64, 16, 16]             128
            ReLU-165           [-1, 64, 16, 16]               0
    Resnet_block-166           [-1, 64, 16, 16]               0
          Conv2d-167           [-1, 64, 16, 16]          36,864
     BatchNorm2d-168           [-1, 64, 16, 16]             128
            ReLU-169           [-1, 64, 16, 16]               0
          Conv2d-170           [-1, 64, 16, 16]          36,864
     BatchNorm2d-171           [-1, 64, 16, 16]             128
            ReLU-172           [-1, 64, 16, 16]               0
    Resnet_block-173           [-1, 64, 16, 16]               0
          Conv2d-174           [-1, 64, 16, 16]          36,864
     BatchNorm2d-175           [-1, 64, 16, 16]             128
            ReLU-176           [-1, 64, 16, 16]               0
          Conv2d-177           [-1, 64, 16, 16]          36,864
     BatchNorm2d-178           [-1, 64, 16, 16]             128
            ReLU-179           [-1, 64, 16, 16]               0
    Resnet_block-180           [-1, 64, 16, 16]               0
          Conv2d-181           [-1, 64, 16, 16]          36,864
     BatchNorm2d-182           [-1, 64, 16, 16]             128
            ReLU-183           [-1, 64, 16, 16]               0
          Conv2d-184           [-1, 64, 16, 16]          36,864
     BatchNorm2d-185           [-1, 64, 16, 16]             128
            ReLU-186           [-1, 64, 16, 16]               0
    Resnet_block-187           [-1, 64, 16, 16]               0
          Conv2d-188            [-1, 128, 8, 8]          73,728
     BatchNorm2d-189            [-1, 128, 8, 8]             256
            ReLU-190            [-1, 128, 8, 8]               0
          Conv2d-191            [-1, 128, 8, 8]         147,456
     BatchNorm2d-192            [-1, 128, 8, 8]             256
          Conv2d-193            [-1, 128, 8, 8]           8,192
     BatchNorm2d-194            [-1, 128, 8, 8]             256
            ReLU-195            [-1, 128, 8, 8]               0
    Resnet_block-196            [-1, 128, 8, 8]               0
          Conv2d-197            [-1, 128, 8, 8]         147,456
     BatchNorm2d-198            [-1, 128, 8, 8]             256
            ReLU-199            [-1, 128, 8, 8]               0
          Conv2d-200            [-1, 128, 8, 8]         147,456
     BatchNorm2d-201            [-1, 128, 8, 8]             256
            ReLU-202            [-1, 128, 8, 8]               0
    Resnet_block-203            [-1, 128, 8, 8]               0
          Conv2d-204            [-1, 128, 8, 8]         147,456
     BatchNorm2d-205            [-1, 128, 8, 8]             256
            ReLU-206            [-1, 128, 8, 8]               0
          Conv2d-207            [-1, 128, 8, 8]         147,456
     BatchNorm2d-208            [-1, 128, 8, 8]             256
            ReLU-209            [-1, 128, 8, 8]               0
    Resnet_block-210            [-1, 128, 8, 8]               0
          Conv2d-211            [-1, 128, 8, 8]         147,456
     BatchNorm2d-212            [-1, 128, 8, 8]             256
            ReLU-213            [-1, 128, 8, 8]               0
          Conv2d-214            [-1, 128, 8, 8]         147,456
     BatchNorm2d-215            [-1, 128, 8, 8]             256
            ReLU-216            [-1, 128, 8, 8]               0
    Resnet_block-217            [-1, 128, 8, 8]               0
          Conv2d-218            [-1, 128, 8, 8]         147,456
     BatchNorm2d-219            [-1, 128, 8, 8]             256
            ReLU-220            [-1, 128, 8, 8]               0
          Conv2d-221            [-1, 128, 8, 8]         147,456
     BatchNorm2d-222            [-1, 128, 8, 8]             256
            ReLU-223            [-1, 128, 8, 8]               0
    Resnet_block-224            [-1, 128, 8, 8]               0
          Conv2d-225            [-1, 128, 8, 8]         147,456
     BatchNorm2d-226            [-1, 128, 8, 8]             256
            ReLU-227            [-1, 128, 8, 8]               0
          Conv2d-228            [-1, 128, 8, 8]         147,456
     BatchNorm2d-229            [-1, 128, 8, 8]             256
            ReLU-230            [-1, 128, 8, 8]               0
    Resnet_block-231            [-1, 128, 8, 8]               0
          Conv2d-232            [-1, 128, 8, 8]         147,456
     BatchNorm2d-233            [-1, 128, 8, 8]             256
            ReLU-234            [-1, 128, 8, 8]               0
          Conv2d-235            [-1, 128, 8, 8]         147,456
     BatchNorm2d-236            [-1, 128, 8, 8]             256
            ReLU-237            [-1, 128, 8, 8]               0
    Resnet_block-238            [-1, 128, 8, 8]               0
          Conv2d-239            [-1, 128, 8, 8]         147,456
     BatchNorm2d-240            [-1, 128, 8, 8]             256
            ReLU-241            [-1, 128, 8, 8]               0
          Conv2d-242            [-1, 128, 8, 8]         147,456
     BatchNorm2d-243            [-1, 128, 8, 8]             256
            ReLU-244            [-1, 128, 8, 8]               0
    Resnet_block-245            [-1, 128, 8, 8]               0
          Conv2d-246            [-1, 128, 8, 8]         147,456
     BatchNorm2d-247            [-1, 128, 8, 8]             256
            ReLU-248            [-1, 128, 8, 8]               0
          Conv2d-249            [-1, 128, 8, 8]         147,456
     BatchNorm2d-250            [-1, 128, 8, 8]             256
            ReLU-251            [-1, 128, 8, 8]               0
    Resnet_block-252            [-1, 128, 8, 8]               0
          Conv2d-253            [-1, 128, 8, 8]         147,456
     BatchNorm2d-254            [-1, 128, 8, 8]             256
            ReLU-255            [-1, 128, 8, 8]               0
          Conv2d-256            [-1, 128, 8, 8]         147,456
     BatchNorm2d-257            [-1, 128, 8, 8]             256
            ReLU-258            [-1, 128, 8, 8]               0
    Resnet_block-259            [-1, 128, 8, 8]               0
          Conv2d-260            [-1, 128, 8, 8]         147,456
     BatchNorm2d-261            [-1, 128, 8, 8]             256
            ReLU-262            [-1, 128, 8, 8]               0
          Conv2d-263            [-1, 128, 8, 8]         147,456
     BatchNorm2d-264            [-1, 128, 8, 8]             256
            ReLU-265            [-1, 128, 8, 8]               0
    Resnet_block-266            [-1, 128, 8, 8]               0
          Conv2d-267            [-1, 128, 8, 8]         147,456
     BatchNorm2d-268            [-1, 128, 8, 8]             256
            ReLU-269            [-1, 128, 8, 8]               0
          Conv2d-270            [-1, 128, 8, 8]         147,456
     BatchNorm2d-271            [-1, 128, 8, 8]             256
            ReLU-272            [-1, 128, 8, 8]               0
    Resnet_block-273            [-1, 128, 8, 8]               0
          Conv2d-274            [-1, 128, 8, 8]         147,456
     BatchNorm2d-275            [-1, 128, 8, 8]             256
            ReLU-276            [-1, 128, 8, 8]               0
          Conv2d-277            [-1, 128, 8, 8]         147,456
     BatchNorm2d-278            [-1, 128, 8, 8]             256
            ReLU-279            [-1, 128, 8, 8]               0
    Resnet_block-280            [-1, 128, 8, 8]               0
AdaptiveAvgPool2d-281            [-1, 128, 1, 1]               0
         Dropout-282                  [-1, 128]               0
          Linear-283                   [-1, 10]           1,290
================================================================
Total params: 4,964,266
Trainable params: 4,964,266
Non-trainable params: 0
----------------------------------------------------------------
Input size (MB): 0.01
Forward/backward pass size (MB): 40.94
Params size (MB): 18.94
Estimated Total Size (MB): 59.89
----------------------------------------------------------------


start epoch 1, end epoch 500
…
